…
://localhost:8080/"},"id":"IT0hrKEWdDmH","executionInfo":{"status":"ok","timestamp":1678450640772,"user_tz":0,"elapsed":1075,"user":{"displayName":"Govardhanrao Goli","userId":"09316166962059821201"}},"outputId":"ba853227-04e1-4d70-c027-dc7c7b60be7a"},"execution_count":null,"outputs":[{"output_type":"stream","name":"stdout","text":["Model: \"sequential\"\n","_________________________________________________________________\n"," Layer (type)                Output Shape              Param #   \n","=================================================================\n"," conv2d (Conv2D)             (None, 170, 170, 64)      4864      \n","                                                                 \n"," max_pooling2d (MaxPooling2D  (None, 85, 85, 64)       0         \n"," )                                                               \n","                                                                 \n"," conv2d_1 (Conv2D)           (None, 85, 85, 32)        32800     \n","                                                                 \n"," max_pooling2d_1 (MaxPooling  (None, 42, 42, 32)       0         \n"," 2D)                                                             \n","                                                                 \n"," conv2d_2 (Conv2D)           (None, 42, 42, 128)       36992     \n","                                                                 \n"," max_pooling2d_2 (MaxPooling  (None, 21, 21, 128)      0         \n"," 2D)                                                             \n","                                                                 \n"," conv2d_3 (Conv2D)           (None, 21, 21, 50)        57650     \n","                                                                 \n"," flatten (Flatten)           (None, 22050)             0         \n","                                                                 \n"," dense (Dense)               (None, 64)                1411264   \n","                                                                 \n"," dense_1 (Dense)             (None, 5)                 325       \n","                                                                 \n","=================================================================\n","Total params: 1,543,895\n","Trainable params: 1,543,895\n","Non-trainable params: 0\n","_________________________________________________________________\n"]}]},{"cell_type":"code","source":["from time import time\n","tic=time()\n","epoch=10\n","hi
…
